lab2/weights.pt (torch_old, 77369 bytes, 2 tensors)

l1.weight f4 [2, 9600]
-0.007271027 0.0022192039 0.0023025107 -0.007965133 -0.00792163 -0.006502607 -0.004597101 -0.010035105
0.005780231 -0.006028176 0.0011169743 -0.008212646 -0.0036598174 -0.00054464303 0.004836444 -0.0004844144
-0.0065020244 0.0011642007 -0.0045286827 -0.009601953 0.005861886 0.0021459553 0.004215058 0.009665148
0.0025440454 0.006176686 -0.0004558228 -0.0026081116 -0.009365123 0.0005714372 -0.0043469355 0.0035024742
0.0050066533 -0.007833337 -0.0063997884 0.0036329832 -0.0058278064 0.0011831829 0.009532614 -0.008613519
-0.0035682842 -0.009605416 -0.002290994 0.0044061644 -0.0031336918 -0.002432032 -0.0010016253 -0.0042653284
-0.0038151732 0.007670203 -0.009041066 0.0017166259 0.006485276 0.0034117 -0.0070403786 -0.0011634352
-0.0077297585 0.003918593 -0.0063060364 0.00014167558 0.0047246283 -0.0077789174 0.009357505 0.002181366
-0.0041551436 0.0029064976 -0.004562008 0.0018692799 0.0077363495 0.0024277251 -0.00427184 -0.003679004
0.0061012916 0.0019159839 -0.00038045645 -0.0071446816 -0.0040532215 -0.00079029147 0.0009317603 -0.008543841
0.007006526 0.0066750664 0.0061312467 0.009295251 0.009515511 -0.006038504 0.009862311 -0.0050112754
0.004916843 0.0052192844 0.008610703 -0.00064018276 0.0067784563 0.0013808431 0.0015784102 0.0048434157
-0.005609047 -0.0055095837 0.0097882375 0.004081527 0.002591175 -0.0067090695 0.008297918 -0.007284412
0.0057434086 -0.002909943 -0.003142485 0.0054633934 0.0077911597 0.0057144593 -0.0031995857 -0.0064316276
-0.0026721037 0.0055419486 0.00015282072 -0.00089978613 -0.0014067264 -0.009569933 0.0086251665 -0.0031892792
0.00017839856 0.0055003986 0.0048854966 0.0021454552 -0.0039456096 0.008304514 0.0047565596 -0.001044442
0.0053985016 0.005367115 0.003082553 -0.00787704 -0.005531541 0.009850929 -0.0020796861 -0.0013272781
0.005502872 -0.004782621 -0.0030022194 -0.0086533325 -0.0010560611 0.0027795425 0.008703347 -0.0063000186
-0.00849475 -0.00043920334 -0.005222732 -0.0036176401 -0.0043985615 -0.006516342 0.0015637754 0.001868045
0.0003074212 0.0078304 -0.0011209575 0.0070728753 -0.0054830774 7.19456e-05 0.00063581206 -0.0013526008
-0.008930647 -0.0072416165 -0.00040872768 -0.00043405313 0.008843502 -0.0072747064 -0.0022942023 0.009672467
-0.008120108 -0.005371113 -0.0033411132 0.0018276647 -0.005936199 -0.00037388317 0.006673811 0.0053035514
0.008958379 -0.004073331 0.0031767832 0.0012280643 0.006879812 0.0091649555 -0.006516166 0.008669503
0.0023800004 0.006474266 0.0068319757 0.0021548364 -6.686151e-05 0.005216101 0.009739224 0.008098101
0.0032255203 0.008261032 -0.009807637 0.006750919 -0.0009339219 -0.0006737262 0.005112854 -0.0009684237
-0.004180033 -0.007420077 -0.0042533525 -0.0066141747 -0.0010897089 -0.0045205536 -0.0008634422 -0.008110067
-0.010011826 0.0074445046 -0.0077975774 -0.0010026433 0.0040827664 0.004518387 0.007198559 -0.008902829
0.0016307104 -0.0007518651 0.0029845387 0.0047942484 0.008104768 0.004947827 0.0073595922 -0.009390989
-0.0068100705 -0.0069845538 0.0029359842 0.00055962894 0.008560941 0.0019380096 -0.00023968238 -0.0075839264
0.0015664808 0.0070662163 -0.00785546 0.010034427 -0.009033101 -0.0023336876 -0.009898909 -0.004490709
-0.00226581 0.004017312 -0.0050231586 0.003529396 0.00031070132 -0.0030755056 0.008391799 -0.0074875634
-0.0034831353 -0.009235237 -0.010154658 -0.009479999 0.0016680453 -0.0030837436 -0.006545995 0.0009741634
00000000: cc41 eebb 1070 113b b8e5 163b 3080 02bc
00000010: b9c9 01bc d213 d5bb 47a3 96bb 486a 24bc
00000020: 1868 bd3b 0188 c5bb 7067 923a 558e 06bc
00000030: 8cd9 6fbb 60c6 0eba 087b 9e3b 00f9 fdb9
00000040: ef0e d5bb 1898 983a 5865 94bb 8351 1dbc
00000050: 1015 c03b 28a3 0c3b 781e 8a3b 925a 1e3c
00000060: 00ba 263b cc65 ca3b 80fb eeb9 daec 2abb
00000070: 2c70 19bc 80cc 153a bd70 8ebb c489 653b
00000080: da0e a43b 6657 00bc 51b5 d1bb 5817 6e3b
00000090: 2ff7 bebb 0815 9b3a ae2e 1c3c b81f 0dbc
000000a0: e0d9 69bb 0960 1dbc 8024 16bb 9661 903b
000000b0: a05e 4dbb ba62 1fbb f848 83ba 2bc4 8bbb
000000c0: fc07 7abb 5456 fb3b fb20 14bc 6800 e13a
000000d0: 7082 d43b d496 5f3b fab2 e6bb 687e 98ba
000000e0: ea49 fdbb 8a67 803b dea2 cebb c08e 1439
000000f0: 0ed1 9a3b 4ae6 febb 3850 193c 40f5 0e3b
00000100: df27 88bb f07a 3e3b e67c 95bb a002 f53a
00000110: 3481 fd3b 781a 1f3b cbfa 8bbb 721b 71bb
00000120: 58ed c73b c021 fb3a 0078 c7b9 ef1d eabb
00000130: e3d0 84bb 902b 4fba 6041 743a 77fb 0bbc
00000140: 0097 e53b 84ba da3b a0e8 c83b 1c4b 183c
00000150: f2e6 1b3c a5de c5bb 8895 213c a035 a4bb
00000160: 781d a13b 8806 ab3b e813 0d3c f0d1 27ba
00000170: d01d de3b 68fd b43a a8e2 ce3a 84b5 9e3b
00000180: 19cc b7bb bd89 b4bb d85e 203c 54be 853b
00000190: b4d0 293b c1d7 dbbb fef3 073c 14b2 eebb
000001a0: 3433 bc3b beb4 3ebb 26f2 4dbb 4406 b33b
000001b0: fc4c ff3b 5c40 bb3b 24b0 51bb 67c0 d2bb
000001c0: 761e 2fbb 3c99 b53b 803e 2039 a0df 6bba
000001d0: e861 b8ba 35cb 1cbc 9250 0d3c 3a03 51bb
000001e0: 8010 3b39 b03c b43b 8416 a03b c49a 0c3b
000001f0: 2c4a 81bb a80f 083c eadc 9b3b a8e5 88ba
00000200: eae5 b03b a0de af3b a804 4a3b b30e 01bc
00000210: ee41 b5bb ca65 213c 584b 08bb 10f8 adba
00000220: 7051 b43b 88b7 9cbb e2c0 44bb b5c6 0dbc
00000230: 886b 8aba fc28 363b 7c98 0e3c 6370 cebb
00000240: 902d 0bbc e044 e6b9 7423 abbb ee15 6dbb
00000250: cf21 90bb 0a87 d5bb 98f7 cc3a 30d9 f43a
00000260: 602d a139 144b 003c 18ed 92ba 94c3 e73b
00000270: 63ab b3bb 80e1 9638 a0ac 263a c049 b1ba
00000280: d951 12bc 154b edbb 804a d6b9 a091 e3b9
00000290: 56e4 103c a960 eebb 545a 16bb 4479 1e3c
000002a0: 340a 05bc 2900 b0bb 94f6 5abb 408e ef3a
000002b0: 7284 c2bb c005 c4b9 fcaf da3b 6ac9 ad3b
000002c0: 2ac6 123c 9479 85bb 9431 503b 00f7 a03a
000002d0: 0c70 e13b 9c28 163c 9085 d5bb 880a 0e3c
000002e0: c8f9 1b3b 1426 d43b c4de df3b 2838 0d3b
000002f0: 0038 8cb8 d4eb aa3b 4491 1f3c e6ad 043c
00000300: 4063 533b 4859 073c 36b0 20bc d036 dd3b
00000310: 70d2 74ba 009d 30ba ba89 a73b d0dd 7dba
00000320: a9f8 88bb 1e24 f3bb b55f 8bbb b8bb d8bb
00000330: 90d4 8eba 2721 94bb a058 62ba 16e0 04bc
00000340: a408 24bc 08f1 f33b d282 ffbb 206b 83ba
00000350: bac8 853b fa0e 943b e4e1 eb3b 2cdd 11bc
00000360: 90bd d53a d018 45ba 4098 433b 1219 9d3b
00000370: dcc9 043c 6221 a23b bc28 f13b aadc 19bc
00000380: 0327 dfbb afde e4bb a469 403b 10b4 123a
00000390: 3043 0c3c d004 fe3a 4053 7bb9 9682 f8bb
000003a0: 6052 cd3a b88b e73b 30b4 00bc 7067 243c
000003b0: 92ff 13bc c8f0 18bb 092f 22bc cc26 93bb
000003c0: fc7d 14bb a8a3 833b 4f99 a4bb 704d 673b
000003d0: a0e5 a239 6c8e 49bb c27d 093c 3c5a f5bb
000003e0: 5045 64bb 644f 17bc b95f 26bc ff51 1bbc
000003f0: 50a2 da3a a218 4abb c97f d6bb 005f 7f3a

l1.bias f4 [2]
0.0071316045 0.00061183795
00000000: 3cb0 e93b c063 203a
